…
 Layer (type)                   Output Shape         Param #     Connected to                     
==================================================================================================
 left (InputLayer)              [(None, 17000)]      0           []                               
                                                                                                  
 right (InputLayer)             [(None, 17000)]      0           []                               
                                                                                                  
 left_dense1 (Dense)            (None, 2048)         34818048    ['left[0][0]']                   
                                                                                                  
 right_dense1 (Dense)           (None, 2048)         34818048    ['right[0][0]']                  
                                                                                                  
 left_BN1 (BatchNormalization)  (None, 2048)         8192        ['left_dense1[0][0]']            
                                                                                                  
 right_BN1 (BatchNormalization)  (None, 2048)        8192        ['right_dense1[0][0]']           
                                                                                                  
 left_Dropout1 (Dropout)        (None, 2048)         0           ['left_BN1[0][0]']               
                                                                                                  
 right_Dropout1 (Dropout)       (None, 2048)         0           ['right_BN1[0][0]']              
                                                                                                  
 left_dense2 (Dense)            (None, 1024)         2098176     ['left_Dropout1[0][0]']          
                                                                                                  
 right_dense2 (Dense)           (None, 1024)         2098176     ['right_Dropout1[0][0]']         
                                                                                                  
 left_BN2 (BatchNormalization)  (None, 1024)         4096        ['left_dense2[0][0]']            
                                                                                                  
 right_BN2 (BatchNormalization)  (None, 1024)        4096        ['right_dense2[0][0]']           
                                                                                                  
 left_Dropout2 (Dropout)        (None, 1024)         0           ['left_BN2[0][0]']               
                                                                                                  
 right_Dropout2 (Dropout)       (None, 1024)         0           ['right_BN2[0][0]']              
                                                                                                  
 left_dense3 (Dense)            (None, 512)          524800      ['left_Dropout2[0][0]']          
                                                                                                  
 right_dense3 (Dense)           (None, 512)          524800      ['right_Dropout2[0][0]']         
                                                                                                  
 left_BN3 (BatchNormalization)  (None, 512)          2048        ['left_dense3[0][0]']            
                                                                                                  
 right_BN3 (BatchNormalization)  (None, 512)         2048        ['right_dense3[0][0]']           
                                                                                                  
 left_Dropout3 (Dropout)        (None, 512)          0           ['left_BN3[0][0]']               
                                                                                                  
 right_Dropout3 (Dropout)       (None, 512)          0           ['right_BN3[0][0]']              
                                                                                                  
 left_dense4 (Dense)            (None, 128)          65664       ['left_Dropout3[0][0]']          
                                                                                                  
 right_dense4 (Dense)           (None, 128)          65664       ['right_Dropout3[0][0]']         
                                                                                                  
 left_BN4 (BatchNormalization)  (None, 128)          512         ['left_dense4[0][0]']            
                                                                                                  
 right_BN4 (BatchNormalization)  (None, 128)         512         ['right_dense4[0][0]']           
                                                                                                  
 concatenate (Concatenate)      (None, 256)          0           ['left_BN4[0][0]',               
                                                                  'right_BN4[0][0]']              
                                                                                                  
 merged_dense (Dense)           (None, 8)            2056        ['concatenate[0][0]']            
                                                                                                  
 merged_BN (BatchNormalization)  (None, 8)           32          ['merged_dense[0][0]']           
                                                                                                  
 merged_Dropout (Dropout)       (None, 8)            0           ['merged_BN[0][0]']              
                                                                                                  
 ppi_pred (Dense)               (None, 2)            18          ['merged_Dropout[0][0]']         
                                                                                                  
==================================================================================================
Total params: 75,045,178
Trainable params: 75,030,314
Non-trainable params: 14,864
__________________________________________________________________________________________________
…
