Model:
InteractionModelFC2(
  (fc1): Linear(in_features=23320, out_features=4000, bias=True)
  (fc2): Linear(in_features=4000, out_features=1000, bias=True)
  (fc3): Linear(in_features=1000, out_features=200, bias=True)
  (fc4): Linear(in_features=400, out_features=200, bias=True)
  (fc5): Linear(in_features=200, out_features=100, bias=True)
  (fc6): Linear(in_features=100, out_features=2, bias=True)
  (norm1a): BatchNorm1d(4000, eps=1e-05, momentum=0.1, affine=True)
  (norm1b): BatchNorm1d(1000, eps=1e-05, momentum=0.1, affine=True)
  (norm1c): BatchNorm1d(200, eps=1e-05, momentum=0.1, affine=True)
  (norm3): BatchNorm1d(200, eps=1e-05, momentum=0.1, affine=True)
  (norm4): BatchNorm1d(100, eps=1e-05, momentum=0.1, affine=True)
)
Optimizer: Adam
Epochs: 200
01:21:29:54
Size of batches: 18 
Learning rate: 0.001
Momentum: 0.1 
Training Loss over epochs
0 : 0.5583016626490234
1 : 0.5137220988510705
2 : 0.49479118833464936
3 : 0.485684950197846
4 : 0.4810123379720368
5 : 0.4765626720919749
6 : 0.4745774790374786
7 : 0.47098634731310307
8 : 0.46881788882684816
9 : 0.4668502306561349
10 : 0.46573396418139384
…
