Model:
InteractionModelFC(
  (fc1a): Linear(in_features=23320, out_features=1000, bias=True)
  (fc1b): Linear(in_features=23320, out_features=1000, bias=True)
  (fc2a): Linear(in_features=1000, out_features=200, bias=True)
  (fc2b): Linear(in_features=1000, out_features=200, bias=True)
  (fc3): Linear(in_features=400, out_features=200, bias=True)
  (fc4): Linear(in_features=200, out_features=100, bias=True)
  (fc5): Linear(in_features=100, out_features=2, bias=True)
  (norm1a): BatchNorm1d(1000, eps=1e-05, momentum=0.1, affine=True)
  (norm1b): BatchNorm1d(200, eps=1e-05, momentum=0.1, affine=True)
  (norm2a): BatchNorm1d(1000, eps=1e-05, momentum=0.1, affine=True)
  (norm2b): BatchNorm1d(200, eps=1e-05, momentum=0.1, affine=True)
  (norm3): BatchNorm1d(200, eps=1e-05, momentum=0.1, affine=True)
  (norm4): BatchNorm1d(100, eps=1e-05, momentum=0.1, affine=True)
)
Epochs: 300
01:14:17
Size of batches: 9 
Learning rate: 0.001
Momentum: 0.0 
Training Loss over epochs
0 : 0.5759157336608022
 1 : 0.5007943547366676
 2 : 0.48521483588717196
 3 : 0.479147908378087
 4 : 0.4736609890698837
 5 : 0.4702753747592916
 6 : 0.46978810004666716
 7 : 0.46650244683704367
 8 : 0.4654198399363751
 9 : 0.46523733791804134
 10 : 0.4647684146404502
…
