Model:
InteractionModelFC(
  (fc1a): Linear(in_features=23320, out_features=1000, bias=True)
  (fc1b): Linear(in_features=23320, out_features=1000, bias=True)
  (fc2a): Linear(in_features=1000, out_features=200, bias=True)
  (fc2b): Linear(in_features=1000, out_features=200, bias=True)
  (fc3): Linear(in_features=400, out_features=200, bias=True)
  (fc4): Linear(in_features=200, out_features=100, bias=True)
  (fc5): Linear(in_features=100, out_features=2, bias=True)
  (norm1a): BatchNorm1d(1000, eps=1e-05, momentum=0.1, affine=True)
  (norm1b): BatchNorm1d(200, eps=1e-05, momentum=0.1, affine=True)
  (norm2a): BatchNorm1d(1000, eps=1e-05, momentum=0.1, affine=True)
  (norm2b): BatchNorm1d(200, eps=1e-05, momentum=0.1, affine=True)
  (norm3): BatchNorm1d(200, eps=1e-05, momentum=0.1, affine=True)
  (norm4): BatchNorm1d(100, eps=1e-05, momentum=0.1, affine=True)
)Optimizer: Adam
Epochs: 300
00:57:27
Size of batches: 9 
Learning rate: 0.003
Momentum: 0.0 
Training Loss over epochs
0 : 0.5701227333491125
1 : 0.5138970179594305
2 : 0.5037453723142208
3 : 0.49486513585490066
4 : 0.48624419763679366
5 : 0.4826739044086612
6 : 0.4783971648164042
7 : 0.4754684060164333
8 : 0.4728818638694887
9 : 0.4724846609748819
10 : 0.47232210518872614
…
