Model:
InteractionModelFC(
  (fc1a): Linear(in_features=23320, out_features=1000, bias=True)
  (fc1b): Linear(in_features=23320, out_features=1000, bias=True)
  (fc2a): Linear(in_features=1000, out_features=200, bias=True)
  (fc2b): Linear(in_features=1000, out_features=200, bias=True)
  (fc3): Linear(in_features=400, out_features=200, bias=True)
  (fc4): Linear(in_features=200, out_features=100, bias=True)
  (fc5): Linear(in_features=100, out_features=2, bias=True)
  (norm1a): BatchNorm1d(1000, eps=1e-05, momentum=0.1, affine=True)
  (norm1b): BatchNorm1d(200, eps=1e-05, momentum=0.1, affine=True)
  (norm2a): BatchNorm1d(1000, eps=1e-05, momentum=0.1, affine=True)
  (norm2b): BatchNorm1d(200, eps=1e-05, momentum=0.1, affine=True)
  (norm3): BatchNorm1d(200, eps=1e-05, momentum=0.1, affine=True)
  (norm4): BatchNorm1d(100, eps=1e-05, momentum=0.1, affine=True)
)
Epochs: 500
12:54:41
Size of batches: 9 
Learning rate: 0.001
Momentum: 0.01 
Training Loss over epochs
0 : 0.5737645514493401
1 : 0.501056477358791
2 : 0.48405093322135445
3 : 0.47761870827433855
4 : 0.4741316257896571
5 : 0.47235561295445905
6 : 0.4693034994521736
7 : 0.46753420893950487
8 : 0.4656104465623337
9 : 0.46512044426501487
10 : 0.46246128802359165
…
