Model:
InteractionModelFC(
  (fc1a): Linear(in_features=23320, out_features=1000, bias=True)
  (fc1b): Linear(in_features=23320, out_features=1000, bias=True)
  (fc2a): Linear(in_features=1000, out_features=200, bias=True)
  (fc2b): Linear(in_features=1000, out_features=200, bias=True)
  (fc3): Linear(in_features=400, out_features=200, bias=True)
  (fc4): Linear(in_features=200, out_features=100, bias=True)
  (fc5): Linear(in_features=100, out_features=2, bias=True)
  (norm1a): BatchNorm1d(1000, eps=1e-05, momentum=0.1, affine=True)
  (norm1b): BatchNorm1d(200, eps=1e-05, momentum=0.1, affine=True)
  (norm2a): BatchNorm1d(1000, eps=1e-05, momentum=0.1, affine=True)
  (norm2b): BatchNorm1d(200, eps=1e-05, momentum=0.1, affine=True)
  (norm3): BatchNorm1d(200, eps=1e-05, momentum=0.1, affine=True)
  (norm4): BatchNorm1d(100, eps=1e-05, momentum=0.1, affine=True)
)
Optimizer: Adam
Epochs: 150
14:46:55
Size of batches: 9 
Learning rate: 0.001
Momentum: 0.0 
Training Loss over epochs
0 : 0.5700656323054922
1 : 0.5215493452845336
2 : 0.5039134396262808
3 : 0.49459066287365094
4 : 0.49022967093843434
5 : 0.4859992778336566
6 : 0.47949278117658906
7 : 0.4767427895712468
8 : 0.4734584505831995
9 : 0.4721457060324663
10 : 0.4695674588521688
…
